…
2024-12-30 15:25:55,828,root,WARNING,Filter out embed_avg from pretrained dict because of name not found in target dict
2024-12-30 15:25:55,828,root,INFO,Loaded src_state keys: dict_keys(['embed'])
2024-12-30 15:25:55,828,root,INFO,Loaded src_state keys: dict_keys(['embed'])
2024-12-30 15:25:55,828,root,INFO,Loaded src_state keys: dict_keys(['embed'])
2024-12-30 15:26:00,191,root,INFO,model DistributedDataParallel(
  (module): LauraGenModel(
    (pos_emb_func): PositionalEncoding(
      (dropout): Dropout(p=0.1, inplace=False)
    )
    (text_encoder): ConformerEncoder(
      (embed): Sequential(
        (0): Linear(in_features=128, out_features=512, bias=True)
        (1): LayerNorm((512,), eps=1e-05, elementwise_affine=True)
        (2): Dropout(p=0.1, inplace=False)
        (3): RelPositionalEncoding(
          (dropout): Dropout(p=0.1, inplace=False)
        )
      )
      (encoders): MultiSequential(
        (0): EncoderLayer(
          (self_attn): RelPositionMultiHeadedAttention(
            (linear_q): Linear(in_features=512, out_features=512, bias=True)
            (linear_k): Linear(in_features=512, out_features=512, bias=True)
            (linear_v): Linear(in_features=512, out_features=512, bias=True)
            (linear_out): Linear(in_features=512, out_features=512, bias=True)
            (dropout): Dropout(p=0.0, inplace=False)
            (linear_pos): Linear(in_features=512, out_features=512, bias=False)
          )
          (feed_forward): PositionwiseFeedForward(
            (w_1): Linear(in_features=512, out_features=2048, bias=True)
            (w_2): Linear(in_features=2048, out_features=512, bias=True)
            (dropout): Dropout(p=0.1, inplace=False)
            (activation): Swish()
          )
          (norm_ff): LayerNorm((512,), eps=1e-12, elementwise_affine=True)
          (norm_mha): LayerNorm((512,), eps=1e-12, elementwise_affine=True)
          (dropout): Dropout(p=0.1, inplace=False)
        )
        (1): EncoderLayer(
          (self_attn): RelPositionMultiHeadedAttention(
            (linear_q): Linear(in_features=512, out_features=512, bias=True)
            (linear_k): Linear(in_features=512, out_features=512, bias=True)
            (linear_v): Linear(in_features=512, out_features=512, bias=True)
            (linear_out): Linear(in_features=512, out_features=512, bias=True)
            (dropout): Dropout(p=0.0, inplace=False)
            (linear_pos): Linear(in_features=512, out_features=512, bias=False)
          )
          (feed_forward): PositionwiseFeedForward(
            (w_1): Linear(in_features=512, out_features=2048, bias=True)
            (w_2): Linear(in_features=2048, out_features=512, bias=True)
            (dropout): Dropout(p=0.1, inplace=False)
            (activation): Swish()
          )
          (norm_ff): LayerNorm((512,), eps=1e-12, elementwise_affine=True)
          (norm_mha): LayerNorm((512,), eps=1e-12, elementwise_affine=True)
          (dropout): Dropout(p=0.1, inplace=False)
        )
        (2): EncoderLayer(
          (self_attn): RelPositionMultiHeadedAttention(
            (linear_q): Linear(in_features=512, out_features=512, bias=True)
            (linear_k): Linear(in_features=512, out_features=512, bias=True)
            (linear_v): Linear(in_features=512, out_features=512, bias=True)
            (linear_out): Linear(in_features=512, out_features=512, bias=True)
            (dropout): Dropout(p=0.0, inplace=False)
            (linear_pos): Linear(in_features=512, out_features=512, bias=False)
          )
          (feed_forward): PositionwiseFeedForward(
            (w_1): Linear(in_features=512, out_features=2048, bias=True)
            (w_2): Linear(in_features=2048, out_features=512, bias=True)
            (dropout): Dropout(p=0.1, inplace=False)
            (activation): Swish()
          )
          (norm_ff): LayerNorm((512,), eps=1e-12, elementwise_affine=True)
          (norm_mha): LayerNorm((512,), eps=1e-12, elementwise_affine=True)
          (dropout): Dropout(p=0.1, inplace=False)
        )
        (3): EncoderLayer(
          (self_attn): RelPositionMultiHeadedAttention(
            (linear_q): Linear(in_features=512, out_features=512, bias=True)
            (linear_k): Linear(in_features=512, out_features=512, bias=True)
            (linear_v): Linear(in_features=512, out_features=512, bias=True)
            (linear_out): Linear(in_features=512, out_features=512, bias=True)
            (dropout): Dropout(p=0.0, inplace=False)
            (linear_pos): Linear(in_features=512, out_features=512, bias=False)
          )
          (feed_forward): PositionwiseFeedForward(
            (w_1): Linear(in_features=512, out_features=2048, bias=True)
            (w_2): Linear(in_features=2048, out_features=512, bias=True)
            (dropout): Dropout(p=0.1, inplace=False)
            (activation): Swish()
          )
          (norm_ff): LayerNorm((512,), eps=1e-12, elementwise_affine=True)
          (norm_mha): LayerNorm((512,), eps=1e-12, elementwise_affine=True)
          (dropout): Dropout(p=0.1, inplace=False)
        )
        (4): EncoderLayer(
          (self_attn): RelPositionMultiHeadedAttention(
            (linear_q): Linear(in_features=512, out_features=512, bias=True)
            (linear_k): Linear(in_features=512, out_features=512, bias=True)
            (linear_v): Linear(in_features=512, out_features=512, bias=True)
            (linear_out): Linear(in_features=512, out_features=512, bias=True)
            (dropout): Dropout(p=0.0, inplace=False)
            (linear_pos): Linear(in_features=512, out_features=512, bias=False)
          )
          (feed_forward): PositionwiseFeedForward(
            (w_1): Linear(in_features=512, out_features=2048, bias=True)
            (w_2): Linear(in_features=2048, out_features=512, bias=True)
            (dropout): Dropout(p=0.1, inplace=False)
            (activation): Swish()
          )
          (norm_ff): LayerNorm((512,), eps=1e-12, elementwise_affine=True)
          (norm_mha): LayerNorm((512,), eps=1e-12, elementwise_affine=True)
          (dropout): Dropout(p=0.1, inplace=False)
        )
        (5): EncoderLayer(
          (self_attn): RelPositionMultiHeadedAttention(
            (linear_q): Linear(in_features=512, out_features=512, bias=True)
            (linear_k): Linear(in_features=512, out_features=512, bias=True)
            (linear_v): Linear(in_features=512, out_features=512, bias=True)
            (linear_out): Linear(in_features=512, out_features=512, bias=True)
            (dropout): Dropout(p=0.0, inplace=False)
            (linear_pos): Linear(in_features=512, out_features=512, bias=False)
          )
          (feed_forward): PositionwiseFeedForward(
            (w_1): Linear(in_features=512, out_features=2048, bias=True)
            (w_2): Linear(in_features=2048, out_features=512, bias=True)
            (dropout): Dropout(p=0.1, inplace=False)
            (activation): Swish()
          )
          (norm_ff): LayerNorm((512,), eps=1e-12, elementwise_affine=True)
          (norm_mha): LayerNorm((512,), eps=1e-12, elementwise_affine=True)
          (dropout): Dropout(p=0.1, inplace=False)
        )
      )
      (after_norm): LayerNorm((512,), eps=1e-12, elementwise_affine=True)
    )
    (text_enc_out_layer): Linear(in_features=512, out_features=128, bias=True)
    (lm_embedding): Embedding(2, 128)
    (codec_lm): TransformerEmbedLM(
      (encoder): TransformerEncoder_s0(
        (embed): Sequential(
          (0): Linear(in_features=128, out_features=512, bias=True)
          (1): LayerNorm((512,), eps=1e-05, elementwise_affine=True)
          (2): Dropout(p=0.1, inplace=False)
          (3): ReLU()
          (4): RelPositionalEncoding(
            (dropout): Dropout(p=0.1, inplace=False)
          )
        )
        (encoders): MultiSequential(
          (0): EncoderLayer(
            (self_attn): RelPositionMultiHeadedAttention(
              (linear_q): Linear(in_features=512, out_features=512, bias=True)
              (linear_k): Linear(in_features=512, out_features=512, bias=True)
              (linear_v): Linear(in_features=512, out_features=512, bias=True)
              (linear_out): Linear(in_features=512, out_features=512, bias=True)
              (dropout): Dropout(p=0.1, inplace=False)
              (linear_pos): Linear(in_features=512, out_features=512, bias=False)
            )
            (feed_forward): PositionwiseFeedForward(
              (w_1): Linear(in_features=512, out_features=2048, bias=True)
              (w_2): Linear(in_features=2048, out_features=512, bias=True)
              (dropout): Dropout(p=0.1, inplace=False)
              (activation): ReLU()
            )
            (norm1): LayerNorm((512,), eps=1e-12, elementwise_affine=True)
            (norm2): LayerNorm((512,), eps=1e-12, elementwise_affine=True)
            (dropout): Dropout(p=0.1, inplace=False)
          )
          (1): EncoderLayer(
            (self_attn): RelPositionMultiHeadedAttention(
              (linear_q): Linear(in_features=512, out_features=512, bias=True)
              (linear_k): Linear(in_features=512, out_features=512, bias=True)
              (linear_v): Linear(in_features=512, out_features=512, bias=True)
              (linear_out): Linear(in_features=512, out_features=512, bias=True)
              (dropout): Dropout(p=0.1, inplace=False)
              (linear_pos): Linear(in_features=512, out_features=512, bias=False)
            )
            (feed_forward): PositionwiseFeedForward(
              (w_1): Linear(in_features=512, out_features=2048, bias=True)
              (w_2): Linear(in_features=2048, out_features=512, bias=True)
              (dropout): Dropout(p=0.1, inplace=False)
              (activation): ReLU()
            )
            (norm1): LayerNorm((512,), eps=1e-12, elementwise_affine=True)
            (norm2): LayerNorm((512,), eps=1e-12, elementwise_affine=True)
            (dropout): Dropout(p=0.1, inplace=False)
          )
          (2): EncoderLayer(
            (self_attn): RelPositionMultiHeadedAttention(
              (linear_q): Linear(in_features=512, out_features=512, bias=True)
              (linear_k): Linear(in_features=512, out_features=512, bias=True)
              (linear_v): Linear(in_features=512, out_features=512, bias=True)
              (linear_out): Linear(in_features=512, out_features=512, bias=True)
              (dropout): Dropout(p=0.1, inplace=False)
              (linear_pos): Linear(in_features=512, out_features=512, bias=False)
            )
            (feed_forward): PositionwiseFeedForward(
              (w_1): Linear(in_features=512, out_features=2048, bias=True)
              (w_2): Linear(in_features=2048, out_features=512, bias=True)
              (dropout): Dropout(p=0.1, inplace=False)
              (activation): ReLU()
            )
            (norm1): LayerNorm((512,), eps=1e-12, elementwise_affine=True)
            (norm2): LayerNorm((512,), eps=1e-12, elementwise_affine=True)
            (dropout): Dropout(p=0.1, inplace=False)
          )
          (3): EncoderLayer(
            (self_attn): RelPositionMultiHeadedAttention(
              (linear_q): Linear(in_features=512, out_features=512, bias=True)
              (linear_k): Linear(in_features=512, out_features=512, bias=True)
              (linear_v): Linear(in_features=512, out_features=512, bias=True)
              (linear_out): Linear(in_features=512, out_features=512, bias=True)
              (dropout): Dropout(p=0.1, inplace=False)
              (linear_pos): Linear(in_features=512, out_features=512, bias=False)
            )
            (feed_forward): PositionwiseFeedForward(
              (w_1): Linear(in_features=512, out_features=2048, bias=True)
              (w_2): Linear(in_features=2048, out_features=512, bias=True)
              (dropout): Dropout(p=0.1, inplace=False)
              (activation): ReLU()
            )
            (norm1): LayerNorm((512,), eps=1e-12, elementwise_affine=True)
            (norm2): LayerNorm((512,), eps=1e-12, elementwise_affine=True)
            (dropout): Dropout(p=0.1, inplace=False)
          )
          (4): EncoderLayer(
            (self_attn): RelPositionMultiHeadedAttention(
              (linear_q): Linear(in_features=512, out_features=512, bias=True)
              (linear_k): Linear(in_features=512, out_features=512, bias=True)
              (linear_v): Linear(in_features=512, out_features=512, bias=True)
              (linear_out): Linear(in_features=512, out_features=512, bias=True)
              (dropout): Dropout(p=0.1, inplace=False)
              (linear_pos): Linear(in_features=512, out_features=512, bias=False)
            )
            (feed_forward): PositionwiseFeedForward(
              (w_1): Linear(in_features=512, out_features=2048, bias=True)
              (w_2): Linear(in_features=2048, out_features=512, bias=True)
              (dropout): Dropout(p=0.1, inplace=False)
              (activation): ReLU()
            )
            (norm1): LayerNorm((512,), eps=1e-12, elementwise_affine=True)
            (norm2): LayerNorm((512,), eps=1e-12, elementwise_affine=True)
            (dropout): Dropout(p=0.1, inplace=False)
          )
          (5): EncoderLayer(
            (self_attn): RelPositionMultiHeadedAttention(
              (linear_q): Linear(in_features=512, out_features=512, bias=True)
              (linear_k): Linear(in_features=512, out_features=512, bias=True)
              (linear_v): Linear(in_features=512, out_features=512, bias=True)
              (linear_out): Linear(in_features=512, out_features=512, bias=True)
              (dropout): Dropout(p=0.1, inplace=False)
              (linear_pos): Linear(in_features=512, out_features=512, bias=False)
            )
            (feed_forward): PositionwiseFeedForward(
              (w_1): Linear(in_features=512, out_features=2048, bias=True)
              (w_2): Linear(in_features=2048, out_features=512, bias=True)
              (dropout): Dropout(p=0.1, inplace=False)
              (activation): ReLU()
            )
            (norm1): LayerNorm((512,), eps=1e-12, elementwise_affine=True)
            (norm2): LayerNorm((512,), eps=1e-12, elementwise_affine=True)
            (dropout): Dropout(p=0.1, inplace=False)
          )
        )
        (after_norm): LayerNorm((512,), eps=1e-12, elementwise_affine=True)
      )
      (decoder): Linear(in_features=512, out_features=2050, bias=True)
    )
    (codec_encoder): ConformerEncoder(
      (embed): Sequential(
        (0): Linear(in_features=128, out_features=512, bias=True)
        (1): LayerNorm((512,), eps=1e-05, elementwise_affine=True)
        (2): Dropout(p=0.1, inplace=False)
        (3): RelPositionalEncoding(
          (dropout): Dropout(p=0.1, inplace=False)
        )
      )
      (encoders): MultiSequential(
        (0): EncoderLayer(
          (self_attn): RelPositionMultiHeadedAttention(
            (linear_q): Linear(in_features=512, out_features=512, bias=True)
            (linear_k): Linear(in_features=512, out_features=512, bias=True)
            (linear_v): Linear(in_features=512, out_features=512, bias=True)
            (linear_out): Linear(in_features=512, out_features=512, bias=True)
            (dropout): Dropout(p=0.0, inplace=False)
            (linear_pos): Linear(in_features=512, out_features=512, bias=False)
          )
          (feed_forward): PositionwiseFeedForward(
            (w_1): Linear(in_features=512, out_features=2048, bias=True)
            (w_2): Linear(in_features=2048, out_features=512, bias=True)
            (dropout): Dropout(p=0.1, inplace=False)
            (activation): Swish()
          )
          (norm_ff): LayerNorm((512,), eps=1e-12, elementwise_affine=True)
          (norm_mha): LayerNorm((512,), eps=1e-12, elementwise_affine=True)
          (dropout): Dropout(p=0.1, inplace=False)
        )
        (1): EncoderLayer(
          (self_attn): RelPositionMultiHeadedAttention(
            (linear_q): Linear(in_features=512, out_features=512, bias=True)
            (linear_k): Linear(in_features=512, out_features=512, bias=True)
            (linear_v): Linear(in_features=512, out_features=512, bias=True)
            (linear_out): Linear(in_features=512, out_features=512, bias=True)
            (dropout): Dropout(p=0.0, inplace=False)
            (linear_pos): Linear(in_features=512, out_features=512, bias=False)
          )
          (feed_forward): PositionwiseFeedForward(
            (w_1): Linear(in_features=512, out_features=2048, bias=True)
            (w_2): Linear(in_features=2048, out_features=512, bias=True)
            (dropout): Dropout(p=0.1, inplace=False)
            (activation): Swish()
          )
          (norm_ff): LayerNorm((512,), eps=1e-12, elementwise_affine=True)
          (norm_mha): LayerNorm((512,), eps=1e-12, elementwise_affine=True)
          (dropout): Dropout(p=0.1, inplace=False)
        )
        (2): EncoderLayer(
          (self_attn): RelPositionMultiHeadedAttention(
            (linear_q): Linear(in_features=512, out_features=512, bias=True)
            (linear_k): Linear(in_features=512, out_features=512, bias=True)
            (linear_v): Linear(in_features=512, out_features=512, bias=True)
            (linear_out): Linear(in_features=512, out_features=512, bias=True)
            (dropout): Dropout(p=0.0, inplace=False)
            (linear_pos): Linear(in_features=512, out_features=512, bias=False)
          )
          (feed_forward): PositionwiseFeedForward(
            (w_1): Linear(in_features=512, out_features=2048, bias=True)
            (w_2): Linear(in_features=2048, out_features=512, bias=True)
            (dropout): Dropout(p=0.1, inplace=False)
            (activation): Swish()
          )
          (norm_ff): LayerNorm((512,), eps=1e-12, elementwise_affine=True)
          (norm_mha): LayerNorm((512,), eps=1e-12, elementwise_affine=True)
          (dropout): Dropout(p=0.1, inplace=False)
        )
        (3): EncoderLayer(
          (self_attn): RelPositionMultiHeadedAttention(
            (linear_q): Linear(in_features=512, out_features=512, bias=True)
            (linear_k): Linear(in_features=512, out_features=512, bias=True)
            (linear_v): Linear(in_features=512, out_features=512, bias=True)
            (linear_out): Linear(in_features=512, out_features=512, bias=True)
            (dropout): Dropout(p=0.0, inplace=False)
            (linear_pos): Linear(in_features=512, out_features=512, bias=False)
          )
          (feed_forward): PositionwiseFeedForward(
            (w_1): Linear(in_features=512, out_features=2048, bias=True)
            (w_2): Linear(in_features=2048, out_features=512, bias=True)
            (dropout): Dropout(p=0.1, inplace=False)
            (activation): Swish()
          )
          (norm_ff): LayerNorm((512,), eps=1e-12, elementwise_affine=True)
          (norm_mha): LayerNorm((512,), eps=1e-12, elementwise_affine=True)
          (dropout): Dropout(p=0.1, inplace=False)
        )
        (4): EncoderLayer(
          (self_attn): RelPositionMultiHeadedAttention(
            (linear_q): Linear(in_features=512, out_features=512, bias=True)
            (linear_k): Linear(in_features=512, out_features=512, bias=True)
            (linear_v): Linear(in_features=512, out_features=512, bias=True)
            (linear_out): Linear(in_features=512, out_features=512, bias=True)
            (dropout): Dropout(p=0.0, inplace=False)
            (linear_pos): Linear(in_features=512, out_features=512, bias=False)
          )
          (feed_forward): PositionwiseFeedForward(
            (w_1): Linear(in_features=512, out_features=2048, bias=True)
            (w_2): Linear(in_features=2048, out_features=512, bias=True)
            (dropout): Dropout(p=0.1, inplace=False)
            (activation): Swish()
          )
          (norm_ff): LayerNorm((512,), eps=1e-12, elementwise_affine=True)
          (norm_mha): LayerNorm((512,), eps=1e-12, elementwise_affine=True)
          (dropout): Dropout(p=0.1, inplace=False)
        )
        (5): EncoderLayer(
          (self_attn): RelPositionMultiHeadedAttention(
            (linear_q): Linear(in_features=512, out_features=512, bias=True)
            (linear_k): Linear(in_features=512, out_features=512, bias=True)
            (linear_v): Linear(in_features=512, out_features=512, bias=True)
            (linear_out): Linear(in_features=512, out_features=512, bias=True)
            (dropout): Dropout(p=0.0, inplace=False)
            (linear_pos): Linear(in_features=512, out_features=512, bias=False)
          )
          (feed_forward): PositionwiseFeedForward(
            (w_1): Linear(in_features=512, out_features=2048, bias=True)
            (w_2): Linear(in_features=2048, out_features=512, bias=True)
            (dropout): Dropout(p=0.1, inplace=False)
            (activation): Swish()
          )
          (norm_ff): LayerNorm((512,), eps=1e-12, elementwise_affine=True)
          (norm_mha): LayerNorm((512,), eps=1e-12, elementwise_affine=True)
          (dropout): Dropout(p=0.1, inplace=False)
        )
      )
      (after_norm): LayerNorm((512,), eps=1e-12, elementwise_affine=True)
    )
    (codec_encoder_out_layer): Linear(in_features=512, out_features=128, bias=True)
    (quantizer_codebook): QuantizerCodebook()
    (criterion_ce): LabelSmoothingLoss(
      (criterion): KLDivLoss()
    )
    (quantizer): CostumeQuantizer(
      (rq): ResidualVectorQuantizer(
        (model): DistributedResidualVectorQuantization(
          (layers): ModuleList(
            (0): VectorQuantization(
              (project_in): Identity()
…
